continuous_control.pth (torch, 123701 bytes, 15 tensors)

_model_sequential.fc0.weight f4 [128, 33]
000000 24 40 09 bf bc 5d 17 3c 36 81 b0 bd b7 b7 08 be
       -0.53613496 0.009238657 -0.08618395 -0.13351332
000010 d3 8f d4 be 88 82 13 bf 79 ad 68 bd 1a 12 ea 3d
       -0.4151598 -0.5762105 -0.05680606 0.11429234
000020 12 33 d8 be 53 59 c3 3e e0 27 95 3e 48 c6 9d be
       -0.42226464 0.38154086 0.29131985 -0.3081534
000030 40 d3 3b bd ea 50 c1 3e 53 fb 5a bd 30 99 5d bd
       -0.04585576 0.37757045 -0.053462338 -0.05410117
000040 53 7a 56 3b dc 1c 0f 3e fc 43 1f be 0b 61 02 bf
       0.003272672 0.13975853 -0.15553278 -0.50929326
000050 4b dc 87 3d fd e7 a9 bd 52 eb 02 3e dd 99 ae bd
       0.066338144 -0.082962014 0.1278508 -0.08525441
000060 3a fe 4c be 43 4c af bd f9 15 9c 3e fb 9f 0b 3a
       -0.20018855 -0.08559468 0.30485514 0.0005326268
000070 ea f3 17 be f0 61 83 bc 1a e6 71 be 80 12 1e be
       -0.1483914 -0.016037911 -0.23622933 -0.15436745
000080 7a b5 e0 be d8 1d 99 3e a4 c7 5d 3e c1 f0 3b be
       -0.43888456 0.2990558 0.21658188 -0.18353559
000090 4e e2 ee 3d 1e 28 ae 3d 84 28 39 3e b6 ec 74 be
       0.11664258 0.085037455 0.18081862 -0.23918423
0000a0 ca 74 82 3e f3 f6 26 3e dc f2 84 be c4 84 5c be
       0.25479728 0.16305141 -0.25966537 -0.21535021
0000b0 c3 38 b8 3e 85 4a 60 be 97 f9 e9 be d0 16 d4 3e
       0.35980806 -0.21903427 -0.45698234 0.41423655
0000c0 2c bc 14 be 7e 67 03 3f 61 9f 47 3c 55 51 39 bf
       -0.14524907 0.5132979 0.012183995 -0.7238973
0000d0 cd bd 00 be c9 e4 24 be a6 46 10 3f bd ca 92 3e
       -0.12572403 -0.161029 0.563578 0.28670302
0000e0 2c 1d a2 be 8a fd 1a be 87 fa c3 3d 78 5b 96 3e
       -0.3166288 -0.1513578 0.09569269 0.2936666
0000f0 72 08 07 be a1 e6 52 be 3e 4b 30 bd 27 2a 8e 3d
       -0.13186815 -0.2059579 -0.043040507 0.06941634
000100 45 7e 1a be cc 92 d6 bf 9a ac ae bd 18 0e 20 39
       -0.1508723 -1.6763549 -0.08529015 0.0001526404
000110 f6 da 03 3f b0 4a 3d bd 5f a9 1b be ca fb 26 3e
       0.5150598 -0.046213806 -0.15201329 0.16306987
000120 e8 59 e4 3e ec a9 38 3d 01 be f2 3d c5 54 e2 bd
       0.44599843 0.045083925 0.118526466 -0.11051325
000130 ba 96 6b bd b1 64 20 3e 99 a4 c7 3d df 9b 50 3e
       -0.05751679 0.1566341 0.097481914 0.2037196
000140 4e bb 78 be 1c b4 ad be 9b b9 e5 3e b3 07 90 bd
       -0.24290201 -0.33926475 0.44868168 -0.070327185
000150 d0 dd ab bd 1e f8 36 3c 2a b5 b4 3d 63 c7 5d 3d
       -0.08391917 0.011167554 0.08823617 0.054145228
000160 73 e8 dd be 80 dd 9f 3e 9d d9 6d be 44 98 3c be
       -0.43341407 0.3122368 -0.23227544 -0.1841746
000170 a6 17 7f be 54 18 52 bd 94 1c 1e 3d d5 a1 0d 3d
       -0.24911365 -0.051292732 0.038601473 0.034578163
000180 39 3b 84 3d 40 a6 07 3e 12 a5 61 3f 94 ea f3 3e
       0.06456608 0.13247013 0.881425 0.47639906
000190 14 00 e4 3e 9a 66 7b be 70 35 5d be 5b 25 23 3f
       0.4453131 -0.24550858 -0.21602416 0.63728875
0001a0 60 b0 4b 3e c1 0f 71 bf 4e f2 31 bf d5 fd 82 3e
       0.198915 -0.94164664 -0.6951035 0.25584283
0001b0 f2 f4 03 bf 65 c0 d4 be 08 58 08 3e c5 d1 4a 3f
       -0.5154563 -0.41553035 0.13314831 0.7922633
0001c0 82 b1 b7 3e c6 a3 21 3d 90 b2 d8 3e 6d d4 5b 3e
       0.35877615 0.039462827 0.42323732 0.21467753
0001d0 4c d7 da be 5b 10 1f 3e 73 d5 e7 be ab 07 d9 3c
       -0.42742383 0.15533583 -0.45280036 0.026492914
0001e0 e3 7d 25 3f ad ed 21 3f 27 4f 1e 3e 83 ff 94 3e
       0.6464521 0.6325329 0.15459882 0.2910119
0001f0 23 71 2e bb 69 ec 4f be 42 29 99 3e a8 8e 45 3e
       -0.0026617728 -0.20305027 0.2991429 0.192927
000200 b0 e9 1e 3d 56 cc 93 be 41 d1 15 3e 4f 47 d8 be
       0.03879708 -0.28866833 0.14630605 -0.42241904
000210 be 2b 04 3f 41 60 0b 3e 3b 3c 0b bd 77 02 d5 3d
       0.51629245 0.13610937 -0.033992987 0.10400861
000220 b6 1e 09 3f 38 bd dd bd a6 60 17 3e 65 d1 70 be
       0.53562486 -0.10827106 0.14782962 -0.23517378
000230 ab e5 78 bf bc f7 64 3e 9e e3 6b 3e 7e e7 87 3e
       -0.97225446 0.22360128 0.23036048 0.26543802
000240 9e 9e d7 bd e7 b8 bc be ba b4 3c 3e dd 1e 6b bd
       -0.10528301 -0.3685982 0.18428317 -0.05740248
000250 ec 85 59 3f 35 15 09 bf ce 40 ed bb b8 28 c6 be
       0.84969974 -0.53547984 -0.0072403913 -0.3870294
000260 a4 d3 09 bf 4a 9f d2 be 6d db 98 3e fd e2 7c be
       -0.5383856 -0.41137153 0.2985491 -0.24695964
000270 bd 0c 3c 3c 14 fa aa be 19 51 5e 3e 30 b3 68 bd
       0.011477646 -0.3339392 0.21710624 -0.05681151
000280 41 cd 32 be a6 70 38 3d d6 01 93 3d 7f 35 1e 3e
       -0.1746111 0.045029305 0.071780846 0.15450095
000290 38 af 63 bf 2e 72 31 be c8 21 f9 3e ea a7 4f 3d
       -0.8893924 -0.17328712 0.48658586 0.050697245
0002a0 fa 79 90 be 7e 0e b7 3a 33 53 19 be b9 c7 af bd
       -0.2821806 0.0013966111 -0.14973144 -0.08583016
0002b0 67 aa 80 3e 2b 50 f0 bd b4 f0 a8 3d d8 28 5d 3d
       0.25130007 -0.11734041 0.082490355 0.05399403
0002c0 fe 4c 0b bf 93 d6 c5 bd f3 95 dc be 6e 62 0a be
       -0.54414356 -0.096600674 -0.43083152 -0.1351411
0002d0 14 90 3f 3e 87 05 09 bf 55 07 c6 bd 22 93 65 3f
       0.18707305 -0.5352406 -0.09669367 0.8967763
0002e0 9d 93 28 3f 8c 8f 0c 3f 46 6c 2d be 54 88 a0 be
       0.6585024 0.54906535 -0.16935834 -0.3135401
0002f0 cd d0 5c 3e 53 e7 34 bf f9 2a 83 be 8c 28 d7 3d
       0.21564026 -0.7066547 -0.25618723 0.105057806
000300 91 3c da 3e cb 5f 8d be 0f 47 0f be fc 0e 83 be
       0.42624334 -0.27612147 -0.1399195 -0.2559737
000310 f7 46 b7 bd f5 2d 6e 3d 5d 2f a6 bd 37 a8 52 3e
       -0.08949082 0.058149297 -0.081145026 0.20571981
000320 5e 2f b3 bd 8a 4c 47 be 19 e5 95 3e 49 3d 73 be
       -0.08749269 -0.19462791 0.2927635 -0.23753847
000330 84 36 c4 bc 0a 7e e8 3e 6f 10 b9 3c d7 c1 d9 be
       -0.023951776 0.4540866 0.022590844 -0.425307
000340 42 30 9a be d1 2a ea 3e 7b 68 aa bd 46 74 90 3d
       -0.30114943 0.4573579 -0.08320709 0.070534274
000350 99 45 37 3d 26 ae a4 3d f2 b4 d7 be 0f 27 0f 3f
       0.044744108 0.08041029 -0.42130238 0.55918974
000360 95 b4 45 3e 57 24 38 bf 84 78 f2 3b 04 bc 05 bf
       0.19307168 -0.7193045 0.0073996205 -0.52240014
000370 34 65 26 bf 5f 80 9b 3e 4e 2f 5a be a9 cb 41 bc
       -0.64998174 0.30371377 -0.21307108 -0.0118283415
000380 4a 6e b0 bc 68 64 57 3e e8 db 5e be cc 08 86 ba
       -0.021536965 0.21034396 -0.21763575 -0.001022601
000390 a9 a0 bb be c0 50 1a 3d 50 07 be 3e 3b 53 17 3d
       -0.3664601 0.037674665 0.37114954 0.03694461
0003a0 25 6f 49 3e ba cd ea bc 1e f5 be be f1 af de bd
       0.19671305 -0.028662551 -0.37296385 -0.10873402
0003b0 c0 80 f3 3d cb 78 b7 3e 42 ad 4a 3e 56 7c f6 be
       0.118897915 0.35834345 0.19792655 -0.48141736
0003c0 74 98 45 bc 9e 7a 99 bd 8e 8c 06 bf 65 09 6a be
       -0.012060273 -0.074940905 -0.5255822 -0.22855146
0003d0 35 3e d0 3d 42 2a 2c ba 9e ec 89 3e b3 b8 80 3e
       0.10168115 -0.0006567576 0.26938337 0.25140914
0003e0 89 df fb 3c e1 bf 34 3f 84 65 10 bf 34 a0 fc 3d
       0.030746238 0.70605284 -0.564049 0.12335244
0003f0 ba ad ca 3e 4a f4 a1 be 33 16 b4 bc fd 68 9c 3e
       0.39585668 -0.3163169 -0.021983242 0.3054885

_model_sequential.fc0.bias f4 [128]
000000 c3 67 3d be af 4c ba 3d ea 9e e7 3d d0 bb e3 bd
       -0.18496613 0.090966575 0.11309607 -0.11119807
000010 87 67 c3 3d 96 17 29 be 87 1d 88 be 40 e9 b6 be
       0.09541231 -0.16512904 -0.26585028 -0.3572483
000020 78 6e 1f 3d 1d 69 af 3b 1e fb 03 3e cb 4f 0c bd
       0.03892371 0.0053531067 0.12888762 -0.034255784
000030 f8 01 0f be c0 8f bc be ef 39 1f be 6e 95 bd be
       -0.13965595 -0.36828423 -0.15549444 -0.37028068
000040 53 60 59 3d 7a 77 22 3e 7b 1e 08 be fa 1b 22 bd
       0.053070378 0.15865889 -0.13292877 -0.03957746
000050 ee 12 77 bd 4b 40 98 bd f0 0e 48 3e f8 b1 b2 3c
       -0.060320787 -0.07434138 0.19536948 0.021813378
000060 28 48 f3 be 08 06 55 be 9f a5 4a bb 78 6e b0 bd
       -0.47515988 -0.20803082 -0.0030921472 -0.0861482
000070 b7 e3 93 bd da dc 00 be 91 6c 80 bc 8c 5c 3a be
       -0.072211675 -0.12584248 -0.015676768 -0.18199366
000080 35 60 b4 bb 60 ee e3 bd aa ff 04 be ef 4d 31 be
       -0.005504633 -0.11129451 -0.12988153 -0.17314886
000090 5c ad 03 3e 36 66 47 bd c6 76 9a be 2c be cb bb
       0.128591 -0.04868146 -0.30168742 -0.0062177386
0000a0 5d 75 04 be 6a 32 27 3e b4 a7 85 3d b9 76 9c 3d
       -0.12935396 0.16327825 0.065261275 0.07639832
0000b0 2c 94 88 be f3 bb 3e be d4 85 48 bd ce a4 ae be
       -0.26675546 -0.18626384 -0.048955753 -0.3411011
0000c0 41 64 8d 3d cd 93 22 3e c9 67 94 be 76 1c 31 3c
       0.069038875 0.15876694 -0.28985432 0.010810008
0000d0 41 04 3b be 15 ed a8 bd 93 1a 7f 3d 31 b0 95 bd
       -0.18263341 -0.08248345 0.062281203 -0.073089965
0000e0 05 76 31 3b 9e 69 fc bb 9f 7d 1d be 9e d9 92 be
       0.0027078402 -0.0077030202 -0.15379952 -0.28681654
0000f0 94 24 d1 bd e5 59 5e 3e 89 60 43 3e 1d a0 a6 be
       -0.10212055 0.2171398 0.19079794 -0.32544032
000100 a6 b4 fc bc 0a fb 2a 3d 8f d2 a1 3d 65 01 bb bd
       -0.030847859 0.041743316 0.07901489 -0.09131125
000110 99 71 60 be 3e b4 4e 3d ec 90 7b be 6f 9f 48 bd
       -0.21918334 0.05046486 -0.24567002 -0.048980173
000120 87 1a 9a bd a0 22 2b 3e d9 3b 70 be 17 aa 56 be
       -0.07524591 0.16712427 -0.2346033 -0.20963322
000130 77 24 8a be 9c c1 14 bc b6 b9 3e 3e 84 05 00 3d
       -0.26980945 -0.009079363 0.1862553 0.03125526
000140 5e 62 61 be 3a 13 23 be ae cd f7 bd af 3d a3 bd
       -0.2201018 -0.15925303 -0.12099777 -0.079707496
000150 52 19 87 be 3d 61 79 3c 18 ed 83 bd 56 55 1c be
       -0.26386505 0.015220937 -0.064417064 -0.15266928
000160 11 26 ca 3d 98 34 bf bd df 57 ba bd 5f 71 8b be
       0.09870542 -0.09336203 -0.09098791 -0.27234933
000170 11 07 46 bd f3 e4 ad be 18 a7 3f be b2 a3 28 3e
       -0.048346583 -0.33963737 -0.18716085 0.16468695
000180 3d 23 16 3e 65 bb 34 bd 6b be 11 be 79 fc c0 be
       0.1466188 -0.044124026 -0.14232795 -0.3769262
000190 2a 26 d5 be 45 4a 31 be dc df a2 3c 7a ad 29 bd
       -0.4163068 -0.17313488 0.019882135 -0.041425206
0001a0 4e 45 8c bd 6e a8 db 3d 5e a6 11 bf 72 54 11 3b
       -0.06849156 0.10725485 -0.5689448 0.0022175577
0001b0 18 88 1c be 88 29 01 be c0 8f 39 3e eb be 49 be
       -0.1528629 -0.12613499 0.18121243 -0.19701736
0001c0 51 6a 59 be 2e b0 8a be 40 fe 9a 3e 27 ba f2 bd
       -0.21231963 -0.2708754 0.30272102 -0.11851912
0001d0 e1 87 a8 bd b5 5e d3 bd b0 d6 4e be d2 85 c7 bd
       -0.08229042 -0.10320798 -0.20199084 -0.09742321
0001e0 44 ef 13 3e 32 e6 5d 3e b8 6c bf 3d a1 31 76 be
       0.14446741 0.21669844 0.09346908 -0.2404237
0001f0 2e 10 cb 3d a0 0d a3 3d 11 b9 3b be bd f3 44 be
       0.099151954 0.07961583 -0.18332316 -0.19233604

_model_sequential.fc1.weight f4 [64, 128]
000000 ff ae ea 3d 18 44 57 bd fc 20 e7 3c d5 2c 56 bb
       0.11459159 -0.052555174 0.02821397 -0.003268053
000010 1b 77 61 be 78 48 75 bd 9b 93 01 be 9a 14 0e bc
       -0.22018091 -0.059883565 -0.12653963 -0.008671904
000020 f4 f1 04 bf ae 00 ab bd 73 b4 48 bd 11 27 d7 3d
       -0.5193169 -0.08349739 -0.049000215 0.10505498
000030 21 08 ab bd 9f b5 58 be 06 0b 32 3e d4 57 35 bb
       -0.0835116 -0.21163033 0.17387018 -0.0027670758
000040 0c 4c dc be 2d e1 6b be 3b 00 12 bd 4e 3a 87 bd
       -0.4302677 -0.23035116 -0.03564475 -0.066029176
000050 ea 11 00 be 00 b0 78 be d6 b4 c4 3d 3f 62 81 be
       -0.12506834 -0.24285889 0.09604804 -0.25270268
000060 ed e4 c6 bd f7 43 1f 3e 82 b9 0f bf 46 83 2e 3b
       -0.09711633 0.1555327 -0.5614244 0.0026628538
000070 95 0b 3c be 6e 46 dd bd b1 70 7c be dd 62 07 bf
       -0.18363793 -0.10804449 -0.24652363 -0.5288523
000080 67 e1 c4 be c6 37 7b be e0 c4 81 be 8f ab 79 bd
       -0.38453218 -0.24532995 -0.25345516 -0.060954627
000090 e6 00 21 be d0 3b d2 bd d7 89 f6 bc 86 5e 71 be
       -0.15722999 -0.102653146 -0.030095024 -0.23571214
0000a0 ce 1b ca bd 14 e1 27 be 96 f3 42 be f9 e0 63 3e
       -0.098685846 -0.16394454 -0.19038233 0.22253789
0000b0 1d 66 46 be 8d 22 14 3e 18 ff 17 be de fc a4 3c
       -0.1937489 0.14466305 -0.14843404 0.020140108
0000c0 ba 6e e2 3d d8 e4 4b be 5b f8 8f be b8 a6 d5 be
       0.11056276 -0.19911516 -0.28119168 -0.4172876
0000d0 49 e8 5f bd 73 d1 a8 be 96 21 dc be 71 2a 7f be
       -0.054664884 -0.32972297 -0.42994374 -0.24918534
0000e0 88 17 a9 be 7c ea a7 bd 46 3e 16 be 2c c0 e1 3c
       -0.33025765 -0.08199021 -0.14672193 0.027557455
0000f0 9a 36 a5 bd 09 21 db bd 60 5c 20 be 2b c2 39 be
       -0.08067055 -0.1069966 -0.15660238 -0.18140475
000100 5c b5 46 be c7 29 c1 be 75 19 24 3c f3 09 27 3e
       -0.1940512 -0.37727186 0.010015835 0.16312389
000110 24 20 0f 3c 0a aa 94 3d 9c f8 a7 be f6 7d 37 be
       0.00873569 0.07258995 -0.3280686 -0.17919144
000120 7d f8 8b bd 3a 8d 30 be b1 e0 d6 3d 86 0d b4 be
       -0.06834505 -0.17241374 0.10492075 -0.35166568
000130 c2 93 d0 be 8c eb bf be ef d9 da bd 6b ac be be
       -0.4073773 -0.37484396 -0.10686099 -0.3724092
000140 28 c3 05 bf 66 ae 82 bd c6 1e 6e be 61 dd f1 bd
       -0.5225091 -0.0638092 -0.23253927 -0.11809803
000150 9a 47 b4 bb 8f 12 57 be 9c d4 d1 be f3 55 d7 be
       -0.0055016996 -0.21003173 -0.4098252 -0.42057762
000160 8b 4c 86 3d dc a8 61 be f2 e8 61 be 0a 55 57 be
       0.06557568 -0.22037071 -0.22061518 -0.21028534
000170 84 79 63 3c e5 7f b9 be 78 00 de be 52 84 7c be
       0.013883952 -0.36230388 -0.43359733 -0.24659851
000180 2b a5 aa bd d9 32 5e be 5b 58 d8 3d 68 84 be 3e
       -0.083322845 -0.21699084 0.105637275 0.37210393
000190 7e 05 da bc 95 fe 8a 3d a8 e8 a0 bd 96 82 ed be
       -0.026613947 0.06786839 -0.07856876 -0.46388692
0001a0 0d 62 c0 be 9d a8 1a bd cc e8 55 3d 82 5a ac bd
       -0.37574807 -0.03775846 0.052223966 -0.084157005
0001b0 03 95 22 3e 7b 9b 43 bd 02 aa f7 bd fa e6 c2 3d
       0.15877156 -0.0477557 -0.12092973 0.095167115
0001c0 fc 7e 98 3d 8d 13 1e bd 1a ec a6 bd af be ff be
       0.07446095 -0.038592864 -0.081505015 -0.49950168
0001d0 cf db 5a bd 63 cb 3f be 4e 65 a4 3d b8 fa 00 bf
       -0.053432282 -0.1872993 0.08027135 -0.50382566
0001e0 69 a0 2b bf 6b e0 33 3e 0a c1 89 be 4b 0e 9e bd
       -0.6704164 0.17566077 -0.2690509 -0.0771757
0001f0 00 d2 65 be 88 1e 40 3c 92 cc 9e bd fb a7 ac 3e
       -0.2244339 0.011726029 -0.077538624 0.3372191
000200 99 1e 40 3e 10 80 1a bf 20 c3 1f 3d 85 23 05 be
       0.18761672 -0.6035166 0.039004445 -0.13001831
000210 6d 16 97 3d fd 57 25 be 27 63 a7 be e7 22 29 3d
       0.07377324 -0.16146846 -0.32692835 0.04129305
000220 3a bc 08 be e3 40 b5 be c4 73 1d bd 04 db 35 3e
       -0.13353053 -0.35401067 -0.03844048 0.17759329
000230 23 0d 88 bc 9a 56 7d bd 62 bb 18 bf 2f 75 03 3e
       -0.016607827 -0.061850168 -0.59660923 0.1283767
000240 af c6 08 3f 3a 3c 34 3d f5 15 01 be d0 48 4e be
       0.5342817 0.04400275 -0.12606032 -0.20144963
000250 fa 34 1b bf 3e 9d 55 be 01 48 5e bd ba aa 65 3e
       -0.6062771 -0.20860764 -0.054267887 0.22428408
000260 ee 06 4f bd 28 d5 3c 3e ce e9 19 3d 99 80 57 3e
       -0.050543718 0.18440688 0.03757649 0.2104515
000270 77 8a b4 3d bb 6b d0 3e 09 6f 79 3e 95 df 93 be
       0.088154726 0.40707192 0.24358763 -0.28881517
000280 cb 92 dc 3d f3 99 e0 be 0f 5c ec 3c ee 72 95 bc
       0.10770186 -0.43867454 0.02885249 -0.01824328
000290 bf e7 3b bf 6e 1c d5 be e2 79 f2 bb 01 05 43 be
       -0.7340049 -0.41623253 -0.0073997835 -0.19044878
0002a0 e3 a9 6f 3e 75 43 95 bd 98 c2 c0 bd 07 58 a3 bc
       0.2340465 -0.07288257 -0.09412116 -0.019939436
0002b0 04 dc c7 3c fb 84 49 3e ba d5 58 3e 61 31 ce bb
       0.024396904 0.19679634 0.2117528 -0.0062925075
0002c0 b1 f4 1e 3e 48 18 bc bd 57 03 76 3a 3b 4e 80 bd
       0.1552303 -0.09184319 0.0009384653 -0.06264921
0002d0 cf 26 98 3e 6e b7 0a bf 74 29 0f 3e bc f0 0d be
       0.2971711 -0.5418614 0.13980657 -0.13861364
0002e0 33 e9 c1 be b6 42 a6 3d 0f 1f 8f bd 0d b4 bd 3e
       -0.3787323 0.08118193 -0.06988346 0.3705143
0002f0 65 ce 2b be 6c ac de be 39 3d 07 bd 26 e0 32 bf
       -0.16777952 -0.43490922 -0.03301737 -0.69873273
000300 45 f2 cc be 04 a0 c4 be 30 9e ea be 77 ab 04 be
       -0.40028587 -0.38403332 -0.45823812 -0.12956034
000310 24 02 3e be f8 09 4b 3d 4e be 65 bf 3b 73 68 3c
       -0.18555504 0.049570054 -0.89743507 0.014187629
000320 50 9a 10 3e 82 47 b8 be ca 71 d0 be d9 8e 69 3e
       0.14121366 -0.35992056 -0.40711814 0.22808398
000330 39 04 6b 3d 33 a4 52 3e b6 87 ad be ca 48 56 be
       0.057377074 0.2057045 -0.33892602 -0.20926204
000340 4e 04 79 3c 42 89 8e be 3a 1c fc bd c2 a5 13 3b
       0.01519878 -0.27839094 -0.12310071 0.002252922
000350 67 03 3a bb 6c b2 a8 be ba 8e f5 bc 6c 3f 7c bd
       -0.0028383376 -0.32948625 -0.029975284 -0.06158392
000360 81 e7 e3 be 51 d1 e2 bc 34 9c cf 3e 14 5e 07 3e
       -0.4451256 -0.0276877 0.4054886 0.13219482
000370 6b 46 38 be ff de 9f 3e 2a aa 0b bf aa 0e f2 3c
       -0.17995612 0.3122482 -0.54556525 0.029548008
000380 89 0d a1 be 25 ee 73 be 8e 63 7f 3e 32 12 88 3e
       -0.3145564 -0.23821314 0.24940321 0.26576382
000390 fb 88 9f 3e 87 fe 07 3f 99 5a 0f be 76 8e 84 3d
       0.31159195 0.5312275 -0.13999404 0.06472485
0003a0 26 7a 9f be c3 39 a8 3c 0b 39 42 bf 11 23 0b bf
       -0.3114788 0.020535355 -0.7586829 -0.5435038
0003b0 c0 aa 11 3e e5 15 bb 3d 0d 9e 16 3e ee 0c 84 bd
       0.14225292 0.091350354 0.14708729 -0.06447779
0003c0 09 6a 9c bd 92 9f ab 3d c6 ca 0b be d2 2d 1a be
       -0.07637412 0.08380045 -0.1365157 -0.15056542
0003d0 4a ed 53 3d f9 9a 74 3e 6b c0 ec be d7 0d a1 be
       0.05173997 0.23887242 -0.46240553 -0.3145587
0003e0 0a bd 44 3e e2 d2 39 be 2f 5f 0a bd cc 3d 16 3e
       0.19212738 -0.18146852 -0.03378218 0.14672011
0003f0 73 76 8b bd e1 ee 17 3e 7b 67 4b be e9 74 84 3d
       -0.06809702 0.14837219 -0.19863693 0.06467611

_model_sequential.fc1.bias f4 [64]
000000 fd 4f 38 be f9 16 04 bb 5e 55 6b bd e8 33 a6 be
       -0.17999263 -0.0020155294 -0.05745446 -0.32461476
000010 e8 88 73 bd df 58 45 be 0c f4 9f 3c ac ff d1 3c
       -0.059456736 -0.19272183 0.01952555 0.02563461
000020 fb a4 a2 3c a4 db fb bc e6 c0 dc bd 3c b2 f6 3d
       0.01985406 -0.030744381 -0.1077898 0.12045714
000030 41 36 62 bd 2c ec 21 3e 84 4c a2 3c 45 b6 b4 3a
       -0.05522752 0.15812749 0.019811876 0.0013787231
000040 f6 3f 0c bd b3 5e 76 bd ca 7e 01 3e 5a c9 8f 3d
       -0.034240685 -0.060148906 0.12646022 0.07020827
000050 b6 f2 ae 3d 44 11 3d bd 64 47 65 3a 07 2d e8 bd
       0.08542387 -0.046159044 0.0008746295 -0.11336713
000060 af 76 44 3d a1 f3 a2 bd a4 8c a8 3c 08 73 63 bd
       0.047964748 -0.07956625 0.020574875 -0.055529624
000070 65 b2 96 bc 33 46 52 3d f4 17 34 3d 47 ae a4 3d
       -0.018395612 0.05133648 0.043968156 0.08041053
000080 d8 1e 9e bc c9 e4 bc bc e2 ac 88 3d ba 86 69 bd
       -0.019301817 -0.023058312 0.066736 -0.05701325
000090 eb e7 29 bd 37 db 96 bc 13 a1 47 bb 5d fe 23 be
       -0.04148094 -0.018415077 -0.0030460998 -0.16015
0000a0 fc 3f 02 be 40 e6 03 3d bc c2 2d bc e4 45 91 bd
       -0.1271972 0.032202005 -0.01060551 -0.07093409
0000b0 81 7c 74 bd c6 da 0d 3d 68 33 99 3d 14 1f 93 3c
       -0.05968905 0.034632467 0.07480508 0.017959155
0000c0 d6 54 8f bd 0f e7 5d ba 50 09 15 3d 9a 95 2a bd
       -0.06998603 -0.00084649114 0.036385834 -0.041646577
0000d0 6c 67 69 bd 59 3f 08 bc b6 57 0f bd da c3 6c 3c
       -0.056983396 -0.0083158845 -0.034995757 0.0144509915
0000e0 73 97 11 3d 12 15 f0 bc 06 4f 8c bd 74 5a bc bd
       0.035544824 -0.029306922 -0.0685101 -0.0919694
0000f0 df 4f 22 3d ed ef f6 3d 09 7b 67 3d 13 35 fa 3d
       0.039626952 0.12057481 0.05651382 0.12217154

_model_sequential.fc2.weight f4 [32, 64]
000000 d6 32 7f be 6e 32 81 3e b6 a0 73 3e 97 41 14 3f
       -0.24921736 0.25233787 0.23791775 0.5791258
000010 84 af e3 bc 6b 43 16 bc bd 3e 89 3d ba c8 8c 3e
       -0.027793653 -0.009171347 0.067014195 0.27496892
000020 bb f3 43 bc b2 30 ea 3d d2 06 1a 3e b8 a4 ca bc
       -0.011959965 0.11435069 0.15041664 -0.024736747
000030 c0 9c 5f be bb e6 54 3e fb 1e ec 3d 8f 06 07 3e
       -0.21837139 0.20791142 0.115293466 0.13186096
000040 b3 aa 4c be b9 e7 55 be 32 de 10 3e c2 03 10 3e
       -0.19986992 -0.20889176 0.14147261 0.14063933
000050 5d a9 48 3d 1b 9c c9 3d 0c 9f 59 bd 41 99 32 bd
       0.048989642 0.09844228 -0.053130195 -0.043603186
000060 2a 48 88 bd 2f f9 30 be 01 10 3d 3e ea 11 cf 3e
       -0.06654389 -0.17282556 0.18463136 0.40443355
000070 1a dc 92 bc 80 24 96 bd e2 00 6a 3e b4 e9 3a 3e
       -0.017927218 -0.073311806 0.228519 0.18253213
000080 0e 9e 37 bc d5 3a 72 be 17 d3 13 bd 66 45 0a 3d
       -0.011207117 -0.23655255 -0.036089983 0.03375759
000090 1c 38 b1 bd ff 4b 35 be ae 0d 01 be 6a 8b 0a 3e
       -0.0865328 -0.17704771 -0.12602875 0.13529745
0000a0 77 13 42 be d1 52 1a 3d 65 29 1a 3e 03 31 42 bd
       -0.18952738 0.037676636 0.15054853 -0.047410022
0000b0 48 98 10 3d 79 db 8b 3d 08 2e 4f be d2 1d 03 bd
       0.035301477 0.068289705 -0.20232403 -0.03201086
0000c0 b0 50 84 bd 59 fc a7 3d b8 5a 66 bb 3a 92 1d be
       -0.064607024 0.08202428 -0.0035149287 -0.15387812
0000d0 c3 1d 99 be c8 35 5b 3e 82 d6 55 3e 96 6d 8c bc
       -0.2990552 0.21407235 0.2088261 -0.017142098
0000e0 a7 16 f1 bd d0 7f ab 3d 28 03 0f 3e 55 7c 01 be
       -0.11771899 0.08373988 0.13966048 -0.12645085
0000f0 15 7e ce bd 72 c4 58 3e a0 0c 81 3e a1 dc a0 3a
       -0.10082642 0.21168688 0.25204945 0.0012272784
000100 46 37 14 3f fc 86 c5 3c 2e e9 52 bd 4f 9c 9d bd
       0.5789684 0.024112217 -0.05149191 -0.07695829
000110 55 3a 9b 3c df 8b 04 3d 06 c4 49 3c eb 15 99 3d
       0.018948713 0.032359954 0.012314802 0.07474884
000120 d9 36 0a bd 21 1a d5 bd ca ca bb bc 41 9a f2 bd
       -0.033743713 -0.10405374 -0.022923846 -0.11845828
000130 3b e2 de 3d 3b 2b 4f bd 57 94 af bc df 41 b5 3d
       0.10882994 -0.050578337 -0.021433039 0.088504545
000140 ed 87 0e 3e 5b da 2c 3e 9a 0d 23 be b9 98 0c bf
       0.13919039 0.16880171 -0.15923157 -0.54920536
000150 b5 f0 e5 3b 0d 0f 83 bc d5 89 a1 3d 1a 29 88 3d
       0.00701722 -0.015998388 0.078876175 0.066484645
000160 6e 4d 80 3d 07 f8 12 be 5c 22 0c 3b bc 73 8b be
       0.062647685 -0.14352427 0.0021382784 -0.27236736
000170 e5 a3 8c 3e 91 08 09 3d 2c ca 0a 3e 5c e4 91 be
       0.27468792 0.033455435 0.13553685 -0.28494537
000180 62 d6 c1 be 1b 83 9d 3d eb c7 7a bd b1 93 d0 bc
       -0.37858874 0.07691022 -0.061225813 -0.02546105
000190 ff 2c 89 3e f0 fc c6 3c f7 14 96 bd bc 82 fc 3c
       0.26792142 0.024290532 -0.073282175 0.030824058
0001a0 64 37 9a 3e 4e e0 0c bc d2 08 c9 3e 04 a6 a7 3d
       0.30120385 -0.0085984 0.39264542 0.08185962
0001b0 f3 b4 2a 3e 5f 20 b4 3d 7c 71 ab 3e 35 e2 7a bd
       0.16670589 0.08795237 0.3348502 -0.061250884
0001c0 7a 14 93 3d 65 79 0c 3d b4 3f b3 3c 0f fd a7 3d
       0.0718164 0.03429546 0.021880962 0.08202564
0001d0 ee 5e 8a 3d b9 63 0d 3e fc 61 b0 be f1 92 92 3e
       0.06756388 0.13807572 -0.34449756 0.28627732
0001e0 c2 bc c6 3e 3e 08 3d 3e 3c be ab 3e 52 69 54 bd
       0.38815886 0.18460175 0.33543575 -0.051858254
0001f0 d4 f2 2e be c4 6a d9 3d 69 d0 3c 3e f9 3b e6 3d
       -0.17084819 0.10616067 0.18438877 0.112419076
000200 f0 f9 5b 3e 1b 70 f8 bd 17 25 b4 3c 77 fc 32 3d
       0.21482062 -0.121307574 0.021990342 0.0436978
000210 2b 37 ff 3c 3b e0 54 3e 1f e9 85 3d fb 3c ab be
       0.031154236 0.20788662 0.06538605 -0.33444962
000220 46 8f ae 3d ef a8 ce 3d 22 7e 83 bc bd 4d 8a 3e
       0.08523421 0.10090815 -0.016051356 0.27012435
000230 88 a9 33 3e d9 d8 09 3e ac bd ed 3c f9 52 f5 bd
       0.1754514 0.13461627 0.029021107 -0.119787164
000240 1c 91 8c bf 6e 8a 95 be b5 21 03 be b5 b8 81 bf
       -1.0981784 -0.29207176 -0.12805827 -1.0134493
000250 cd c5 c2 bd d8 61 df 3c 9e 65 e4 bd de 0b a7 be
       -0.09510384 0.027268335 -0.111521944 -0.3262624
000260 63 ff 57 3d d3 ab 4a be 29 b4 b5 3d 4a 02 a6 be
       0.05273379 -0.19792108 0.088722534 -0.3242362
000270 27 aa 79 be de 93 96 3d 27 94 8d 3d 08 70 f8 3c
       -0.24381314 0.07352422 0.069130234 0.030326858
000280 fa 0d f7 be f8 95 10 be fe d0 b2 bc d8 a2 a5 3d
       -0.4825285 -0.14119709 -0.02182817 0.080877006
000290 48 4b cc 3a 0f 31 8e 3c 1f 04 ce 3d b7 33 d8 bd
       0.00155864 0.017357377 0.1005938 -0.10556739
0002a0 68 b0 c5 bd 4c c0 95 3d 88 d2 9c 3e 63 d5 44 bb
       -0.096527874 0.07312068 0.30629373 -0.0030034415
0002b0 44 b8 12 3f 5b 57 0b be 9c 4e a7 bd 72 f4 31 bd
       0.5731242 -0.13607542 -0.081692904 -0.04344601
0002c0 17 17 20 bd 9c 2d 07 bd 86 b0 7f 3d e7 54 7f 3e
       -0.03908452 -0.03300248 0.062424205 0.24934731
0002d0 56 83 8a 3e 35 65 07 bf cf be b4 3d 45 70 8d bc
       0.27053326 -0.52888805 0.08825456 -0.017265448
0002e0 10 17 4d be f4 30 9d be 8a 22 c6 3e 56 5a 81 bd
       -0.20028329 -0.3070141 0.38698226 -0.06316058
0002f0 a0 9c bc bd 2c d0 a0 3e 0a cd 45 bf cc 6f 9a 3e
       -0.09209561 0.31408823 -0.7726599 0.3016342
000300 09 d0 50 be 38 9c 03 3f c5 56 a0 be 14 03 ee 3d
       -0.20391859 0.51410246 -0.313162 0.11621681
000310 29 04 0a 3d f4 74 5f 3e a3 e3 b3 bc 9e a3 ba be
       0.033695374 0.21821958 -0.021959132 -0.36452955
000320 cb d6 20 3c 26 c9 d0 bd 9f 29 1c 3e c9 1f 06 3e
       0.009816836 -0.10194616 0.15250252 0.13098063
000330 bc 04 0c be a2 4b b5 be 80 f4 c4 3c f2 8b 24 3e
       -0.13673681 -0.35409266 0.024042368 0.1606901
000340 c2 23 81 be a3 06 9d 3d 5c d4 ca bd 2c 0c 35 bd
       -0.25222594 0.076672815 -0.099037856 -0.04420106
000350 2f cf 29 bf 61 5a 25 bf d9 54 68 3d 8d a2 15 3e
       -0.6633176 -0.6459103 0.056721542 0.1461279
000360 b9 5d 6f 3d 7a 4e 94 bd c2 41 68 3e 04 64 03 bc
       0.05843899 -0.07241531 0.22681335 -0.008019451
000370 43 6d 01 3f c0 88 b4 3c b0 46 41 bf ce 0c 7d 3c
       0.50557345 0.022037864 -0.75498486 0.015444947
000380 36 ae b3 3b f7 f4 ab 3c 1e 0a a6 be c1 89 37 bd
       0.005483414 0.020990832 -0.32429594 -0.044809107
000390 f8 53 8e bd d9 5d 30 be 4a 17 b7 bd 4c 7e 1b 3d
       -0.069496095 -0.172233 -0.08939989 0.037962243
0003a0 79 c3 94 be 85 05 d5 3c e3 67 be be f0 06 b7 3d
       -0.29055384 0.026003608 -0.37188634 0.0893687
0003b0 6c a1 82 bf 9a 0d 88 bd a9 50 d6 be 6d 7e 7b 3d
       -1.0205512 -0.06643219 -0.41858414 0.061399866
0003c0 b3 0d 12 be 39 ee c4 bc 4e 83 74 bd 1b 13 2c bf
       -0.14263038 -0.024039375 -0.059695534 -0.6721665
0003d0 78 2b 55 bd 0f 45 d8 3e 9a 48 65 be 57 73 38 be
       -0.05204341 0.42240188 -0.22390977 -0.18012749
0003e0 d9 a4 44 bf 47 76 1c bf 74 ab 2b 3e 18 24 af bb
       -0.7681404 -0.61117977 0.16764623 -0.005344879
0003f0 6d 23 39 bf d6 b2 f3 be 08 74 14 3e 03 b9 22 bf
       -0.7231968 -0.47597378 0.14497387 -0.63563555

_model_sequential.fc2.bias f4 [32]
000000 26 cd 9f 3d b9 e0 53 3e 6b 66 1f be 5d 86 71 bd
       0.07802801 0.20691194 -0.15566413 -0.05896603
000010 93 aa d2 3d 18 8c 45 be 1b e3 c5 bd c7 83 2f 3e
       0.10286441 -0.19291723 -0.096624576 0.17140113
000020 fb a2 ee 3d 97 eb b9 3d e8 92 6f 3e 31 97 22 3c
       0.1165218 0.09078138 0.23395884 0.009923742
000030 bb 82 2c 3e 8d bd 68 be 2d c6 4a 3d b3 74 58 3e
       0.16846745 -0.22728558 0.0495054 0.21138267
000040 60 90 40 3c 9e eb 1d be aa f1 1c bd 40 be 27 be
       0.011753172 -0.15421912 -0.038316406 -0.16381168
000050 15 03 9b 3e 63 09 0a 3e 9e 8b 1f be 0c 88 99 3d
       0.3027579 0.13480143 -0.15580603 0.07496652
000060 16 a8 80 be 4d 19 8f 3c be 2a 56 be 0b 09 a1 be
       -0.2512824 0.017468119 -0.20914742 -0.31452212
000070 03 1e 2e be 42 2f 48 bd fe 6d fb be 54 58 2d 3e
       -0.17003636 -0.048873194 -0.49107355 0.16928226

_model_sequential.fc3.weight f4 [4, 32]
000000 09 22 ab bd 6a 9b aa bd 6b 7f 76 3e e6 ce 72 be
       -0.08356101 -0.08330424 0.24072044 -0.23711738
000010 05 ad bf 3b 42 2f 23 3e 7c c8 05 3e 46 a5 9b bd
       0.005849483 0.15935996 0.1306476 -0.07599883
000020 b8 a5 26 3c 89 dc 47 bd a9 46 00 be 69 b1 7c 3e
       0.010171346 -0.048794303 -0.12526955 0.24677052
000030 39 00 09 3e c2 28 14 be 7f 06 5f 3d ff 16 11 3b
       0.13378991 -0.14468673 0.054449555 0.002213895
000040 53 44 ea bd b2 c9 12 3e a6 b2 16 3e 11 94 b8 be
       -0.11438813 0.14334753 0.14716586 -0.36050466
000050 c0 cd 89 be b5 fb b3 be 6b 2f 7c 3d eb 2e 47 3e
       -0.26914787 -0.35152975 0.06156866 0.19451492
000060 de 84 9b 3e b1 5f 12 3e e4 04 93 be f6 83 a1 3e
       0.30374807 0.14294316 -0.2871467 0.3154599
000070 96 5c db 3e 55 95 4e be 8c 4e 86 3f 35 d3 05 3e
       0.42844075 -0.20174153 1.0492721 0.1306885
000080 17 31 85 bd 30 a0 8f 3e 77 a7 ca 3d 8f 97 98 be
       -0.06503504 0.280519 0.09895223 -0.2980313
000090 98 6b 54 3a c3 3f bb 3e 9b 57 86 3e f9 75 88 be
       0.0008103191 0.36572084 0.26238713 -0.26652506
0000a0 2b 3c 9e be e0 04 c2 bd 3d cb 2d be 48 0a 15 be
       -0.3090528 -0.09473586 -0.1697206 -0.14554703
0000b0 2c 61 f7 3d 7f f3 17 3f f5 b2 c8 3d c3 46 cb bd
       0.12079081 0.5935592 0.09799758 -0.09925606
0000c0 71 11 f2 3d f4 75 c0 be a2 96 2c be 29 96 3e bc
       0.11819733 -0.3758999 -0.16854337 -0.011632481
0000d0 bb e5 7c bd c0 7e 09 be 65 01 82 3e ab af 0e be
       -0.061742526 -0.13427258 0.2539169 -0.139342
0000e0 6b 3c 55 3d 46 a8 0a 3f 4b 2c 50 be 8d 4a d2 be
       0.052059572 0.54163015 -0.20329396 -0.41072503
0000f0 5f d0 11 3d e4 b8 98 bc 03 74 54 3e a0 f3 be bd
       0.03559911 -0.01864285 0.2074738 -0.093238115
000100 ed 46 f4 3d 56 b8 83 3d 84 ef 39 3e 0e 21 43 bf
       0.119275905 0.06431644 0.18157774 -0.7622231
000110 c7 2d 00 bf 23 73 6c be a2 48 91 3b b7 6d c3 bd
       -0.5006985 -0.23090796 0.0044337073 -0.09542411
000120 8c 0e 47 3e 2e dd c4 be 27 2e cd be 82 2e b0 b9
       0.19439143 -0.38449997 -0.40074274 -0.00033603987
000130 c4 29 e2 be 8a 6e 3b be a6 86 e7 3d 09 ff f4 3d
       -0.4417249 -0.18303886 0.11304979 0.119627066
000140 13 86 31 3e 8a 3e 04 bf 1b ac dc 3e e7 5c da 3e
       0.17336302 -0.5165793 0.43100056 0.42649004
000150 35 7c 22 be 16 ee 3b 3e 4a b6 43 3e 45 b1 4c 3d
       -0.15867694 0.18352541 0.19112507 0.049973745
000160 d6 80 7f 3d 59 b3 be bd 15 b1 fa bc 4e 2b e7 bd
       0.062378727 -0.093115516 -0.030602017 -0.112875566
000170 ba 71 56 3e f8 82 4e 3e b4 33 10 3f 02 0f c4 be
       0.2094182 0.20167148 0.5632889 -0.382927
000180 3f 09 a1 3e fa 4e ec bd 41 fa 05 3d bb 53 0f be
       0.31452367 -0.11538501 0.032709364 -0.13996784
000190 95 57 54 3d 93 c6 0c 3d bb e5 30 3e 71 9b 17 3d
       0.051841337 0.034369063 0.17275135 0.037013475
0001a0 d7 24 7a bd 02 d5 4a bd 89 c6 85 3e 34 0e b4 bd
       -0.06107029 -0.049519546 0.26128033 -0.087917715
0001b0 45 dc ea bd c9 cf d5 bd 24 b7 5a be 45 eb cd 3e
       -0.11467794 -0.104400225 -0.21358925 0.4021856
0001c0 5a ba 2b be dd 8a 34 3f 20 5f 52 be f1 92 35 3e
       -0.16770306 0.7052439 -0.205441 0.17731835
0001d0 e4 ba 49 be 4f a2 5c be a3 df 2c 3e 64 af 39 be
       -0.197002 -0.21546291 0.16882186 -0.18133312
0001e0 f6 00 b4 ba f1 df 69 bd a9 fd ad 3e 1d 33 0a bf
       -0.0013733197 -0.057098333 0.3398259 -0.5398424
0001f0 00 ef a9 be 4b a9 37 3e 4b 44 ca be db 32 6f bd
       -0.33190155 0.17935674 -0.39505228 -0.05839811

_model_sequential.fc3.bias f4 [4]
000000 df 52 56 bd 8f cf a7 3d 97 07 93 bd 53 3f 61 be
       -0.052325126 0.081938855 -0.07179182 -0.21996813

_model_sequential.fc0.weight f4 [128, 33]
000000 fa 1b 80 ba 72 33 24 bd 9c 04 66 3e 1b 5a a6 bd
       -0.0009773963 -0.040088125 0.22462696 -0.08122655
000010 a2 b2 b4 3d 06 d6 5e 3e 30 00 99 3c ba db f9 3d
       0.08823134 0.21761331 0.018676847 0.12200113
000020 ca e4 88 be 9e 17 b1 3d 8a 96 87 3d b0 62 2f 3e
       -0.26737052 0.08647083 0.0662051 0.1712749
000030 a8 4f 8e 3c 2c c4 15 be c8 bd 92 3e 27 39 20 be
       0.017371967 -0.14625615 0.28660417 -0.15646802
000040 97 59 3f 3d 34 94 66 be 51 02 8d be 58 25 4f 3e
       0.0467163 -0.22517473 -0.2754083 0.2022909
000050 9d 85 07 3e 4e e3 fa 3c 20 42 e2 3d e7 40 5e bd
       0.13234563 0.030625965 0.110477686 -0.054261114
000060 c4 ec 9e bc 08 ec c9 bd 97 26 6f 3e 53 53 5f bd
       -0.019400008 -0.098594725 0.23354565 -0.054522824
000070 4f 28 b2 bd 06 e3 0d bd 14 aa 30 bd bf a6 fb bc
       -0.086990945 -0.034640335 -0.04313095 -0.03071916
000080 14 e3 de be 23 76 9b 3e cd a8 d1 3e f2 b5 3e 3e
       -0.43532622 0.3036357 0.40949097 0.18624094
000090 9b 2a a1 bb e7 0a e8 bd f2 c8 15 be 67 42 74 be
       -0.004918409 -0.113302045 -0.14627436 -0.23853455
0000a0 93 9a 9e be 85 73 dd 3d 30 d2 7b 3e 74 b3 d8 bd
       -0.30977306 0.10813049 0.24591899 -0.10581103
0000b0 ee 53 3d bd 91 7b 6d 3e ca 70 04 bf 3c bc da be
       -0.04622262 0.23191668 -0.517346 -0.42721736
0000c0 d5 ee 9f be da 5b 69 3c db d0 82 3e c0 58 14 3e
       -0.31236902 0.0142430905 0.2554997 0.1448698
0000d0 e6 b2 5e 3d 46 4a d9 3e a5 23 41 bd 95 8e 56 3e
       0.05436983 0.4243948 -0.047153134 0.20952828
0000e0 dd 1c 31 3d 10 d3 25 bd b2 f0 28 be 22 b5 6e 3e
       0.043240417 -0.040484488 -0.16498068 0.23311284
0000f0 8b 42 53 3e 87 25 3a 3e bd b6 1b bc 3c 86 81 be
       0.20630853 0.18178378 -0.009504017 -0.25297725
000100 d6 da 63 3d 3c fe 88 be 01 94 d0 3d 0d 01 e2 3d
       0.05562862 -0.26756465 0.101844795 0.11035357
000110 9a 21 39 3e 6e 3e c1 bd 80 a2 32 3e cb 6f 0b 3e
       0.18079224 -0.09435736 0.17444801 0.13616864
000120 4f bc b9 3e d2 6b 8a 3e a6 4a ba bd 46 be 0b bd
       0.3627648 0.27035385 -0.09096269 -0.034117006
000130 d5 7e cd bd 7f 90 2a bc 40 d1 56 bd a6 af c4 be
       -0.10033957 -0.010410427 -0.05244565 -0.3841526
000140 aa 01 8b 3e da de 2f be ef 9c aa 3e 58 6f 4f 3e
       0.27149707 -0.17174855 0.33322856 0.20257318
000150 c4 0a 21 bf 35 fa 7c bd 71 2b 80 bc cf ce f1 3c
       -0.6290705 -0.061762054 -0.015645714 0.02951756
000160 4b eb 81 3e 92 5f 93 bd 7f fb 21 3e b5 8a f0 3c
       0.25374827 -0.07195963 0.15818594 0.029363016
000170 f6 47 74 3e 36 19 7c 3e c3 9b 40 3e 3f db ab bd
       0.23855576 0.24618992 0.18809418 -0.08391427
000180 b8 57 11 3d 80 55 2f 3e f6 0b e7 3e 60 9a 24 bd
       0.035484046 0.1712246 0.45126313 -0.040186286
000190 fb 30 9e be 8f 6d da bd ba 31 2c 3e 9a 7f 8c be
       -0.30896744 -0.10665428 0.16815844 -0.27441102
0001a0 f0 e7 22 be 4a 2f c1 3c 5f 6c 45 be 48 60 2d ba
       -0.1590879 0.02358212 -0.19279622 -0.00066137733
0001b0 ad 3a 71 3d 3b da 33 3e 0d 4e 2a bd e7 e5 b3 bd
       0.05889385 0.17563717 -0.04157834 -0.08784085
0001c0 cf f5 55 3e 17 64 87 3e 22 75 b6 bd ec c8 41 be
       0.2089455 0.2644355 -0.0890906 -0.18924302
0001d0 f4 ae 07 3d 30 fe 9f 3d 47 18 45 3d 18 1d ef bd
       0.033125833 0.07812154 0.048118856 -0.11675471
0001e0 a9 14 99 3e 35 44 8c be e3 2c fc 3d ad 6e f5 3d
       0.29898575 -0.27395788 0.12313249 0.11984
0001f0 86 a9 04 be 99 b9 5b bd 88 af 70 be 81 93 07 be
       -0.12955293 -0.053643797 -0.2350446 -0.13239862
000200 23 a5 30 3e 7e 60 93 3d 1e 99 db bc ff 4a 46 3f
       0.17250495 0.07196139 -0.02680641 0.77458185
000210 e8 b1 5a 3e bb de d0 3c 75 98 6d bc 76 4e a6 3d
       0.21356928 0.025496831 -0.014501681 0.08120434
000220 d6 cd 88 be 2a f8 81 3c c2 7a 85 3d 24 31 24 3e
       -0.2671954 0.015865404 0.06517555 0.1603437
000230 5a e3 20 3e b4 db 5d bd 74 56 f9 3c 18 e9 06 3e
       0.15711728 -0.054164603 0.030436732 0.13174856
000240 ef 55 bc bd dc 00 72 be f5 16 f5 3d b6 be 5f bd
       -0.09196078 -0.2363314 0.11967269 -0.054625235
000250 fa eb b8 3e fb 78 d5 bd c5 d9 ed 3d ab 11 f2 3c
       0.36117536 -0.10423466 0.11613802 0.02954944
000260 64 2f 53 be 97 37 7b be 54 17 7e bd 74 21 fd bc
       -0.20623547 -0.24532925 -0.062033966 -0.03089974
000270 3e 96 38 bd 99 02 1a 3e 89 ba eb bc 68 6d 86 bb
       -0.045065157 0.15040053 -0.02877547 -0.0041023977
000280 50 c0 0a be 8f 8f 4a 3c 37 1e c0 bd 2b d5 0f bc
       -0.13549924 0.012363329 -0.09380763 -0.008778851
000290 fa a4 aa be 6b f4 0d be ae b9 19 be 3d b7 d8 bd
       -0.33328992 -0.1386277 -0.15012237 -0.10581825
0002a0 f8 15 6e be c4 62 f2 3d 50 b5 26 bc 17 61 03 be
       -0.23250568 0.11835244 -0.010175064 -0.12830006
0002b0 27 0c f4 bd 35 84 35 3f aa 98 e3 3d 6f 0b c2 3d
       -0.119163804 0.70904857 0.11113103 0.09474837
0002c0 c6 3a 96 3e 42 81 c5 bd e3 ef 38 3c bb 55 65 3e
       0.29341716 -0.096437946 0.011287662 0.22395985
0002d0 53 9a 4d 3d 74 64 c0 3d 1d ef 21 3d 7c 65 ba 3e
       0.050196003 0.0939416 0.039534677 0.3640555
0002e0 7c eb 81 be 1e 25 a9 be 6d f7 6e 3e e2 8c 80 bd
       -0.25374973 -0.3303613 0.23336573 -0.06276871
0002f0 4a a7 b8 bd 59 83 3c bd fc 23 84 be 8d a2 62 bd
       -0.09016283 -0.0460237 -0.25808704 -0.0553308
000300 18 5e 5b bd 10 41 9c 3e 6a 5e 30 3e 47 07 d0 3d
       -0.05355653 0.3051839 0.17223516 0.10157638
000310 8d 08 ce 3d b0 aa 19 bf 12 fa 50 3e 5f 4b 84 3e
       0.10060225 -0.60026073 0.20407894 0.25838754
000320 0d d4 c8 3d dc a6 16 3e db 4a 34 3e 4e 21 d7 bd
       0.098060705 0.1471209 0.1760668 -0.10504399
000330 76 b8 3e 3c 49 5e d9 3d b7 e1 3a be f5 a3 2c bd
       0.011640659 0.106136866 -0.18250166 -0.04214855
000340 98 2c 22 bd 97 70 a8 bd 21 6f 78 bd 72 26 1e bf
       -0.03959331 -0.082246 -0.060652856 -0.6177741
000350 61 c5 57 3e ad 40 c9 be d1 31 52 be bf c9 a6 3e
       0.21071388 -0.39307156 -0.20526816 0.32575795
000360 8b dc b3 be 8a 26 0c 3d d8 d2 93 be 02 74 f0 bc
       -0.35129198 0.03421644 -0.288718 -0.029352192
000370 1a 4b de 3d ca f5 0e 3e 31 e5 b9 3d 02 b9 e4 3d
       0.10854168 0.13960949 0.09076918 0.111681
000380 f1 27 9a 3e 6b 05 5f bb 81 4d 62 3e 3d cb e9 bd
       0.30108598 -0.003403033 0.22099878 -0.11415718
000390 8d 55 18 3e 82 4f 04 3c f0 9b a4 3e 51 01 b4 be
       0.14876385 0.008075597 0.3215022 -0.35157254
0003a0 27 82 f4 3e 50 0e 1f be 51 17 4a be 02 8c 52 bd
       0.47755548 -0.15532804 -0.19735457 -0.051403053
0003b0 3d a7 d9 3e c1 cf 09 bf 5b 03 21 be d1 91 b1 bd
       0.42510405 -0.5383263 -0.15723936 -0.086703904
0003c0 56 fb 15 bf b7 fc c9 bd 43 09 c1 3d 74 b6 b1 bd
       -0.58586633 -0.09862655 0.09425595 -0.08677378
0003d0 25 40 49 3d 6f da 08 3f 2a 2c a3 3e ef 47 f3 bb
       0.04913344 0.53458303 0.31869632 -0.0074243466
0003e0 f2 fe dc bd 41 11 7b be 80 43 12 3c 33 82 da 3d
       -0.107908145 -0.245183 0.008927226 0.10669365
0003f0 d0 17 51 3e b7 f9 30 3e 92 2c 5c 3c 0a b7 8e bd
       0.2041924 0.17282759 0.013438361 -0.06968506

_model_sequential.fc0.bias f4 [128]
000000 9f 1c 17 be 75 19 fc bd d6 10 85 bd cc af 06 bd
       -0.14757012 -0.12309543 -0.06497352 -0.032882497
000010 04 ba 8c bc 08 2e e9 bd 67 b7 d4 bd 4c 6b 95 be
       -0.017178543 -0.11385733 -0.10386544 -0.29183424
000020 b2 41 82 be cf 50 ce bd cd a6 73 be f4 60 d0 bd
       -0.25440747 -0.10074007 -0.23794098 -0.10174742
000030 e5 ff 20 be ea e3 79 be 72 ae a3 3d 78 ec 55 bd
       -0.15722616 -0.24403349 0.07992257 -0.052227467
000040 05 a0 25 bd 83 7e 01 bd 8e c7 52 3e 55 5d 0b be
       -0.04043581 -0.03161479 0.20583937 -0.13609822
000050 04 1f 5d 3d 9f 6b 11 3e 7c 1e 8f be 9c a9 74 be
       0.053984657 0.1420121 -0.27952945 -0.23892826
000060 47 aa bf bc dd a3 5c be fc 1f 5e be f7 33 07 be
       -0.023396624 -0.21546884 -0.21691889 -0.13203417
000070 d8 be dd bd c0 a3 d5 be 41 22 a0 bc d8 14 1f bd
       -0.10827416 -0.41726494 -0.019547584 -0.038838238
000080 a8 c1 76 bd a7 70 8b be fd 71 b1 bc 5d 97 44 bd
       -0.06024328 -0.27234384 -0.0216608 -0.047995914
000090 22 2e be bd 36 41 da bd c2 9c 41 be 02 74 e1 bd
       -0.09286143 -0.10656969 -0.18907455 -0.11008455
0000a0 f1 6b 85 be de 6d 3e 3e 73 18 04 be 13 34 68 be
       -0.26058915 0.18596599 -0.12899952 -0.22676115
0000b0 f5 aa 54 be d8 b8 d0 bd 1a 53 0f 3e 41 7c f9 be
       -0.2076834 -0.10191506 0.13996544 -0.4872761
0000c0 be e8 1b be e3 50 71 3c f2 c9 12 be 14 ed b0 3d
       -0.15225503 0.014728758 -0.14334849 0.08638969
0000d0 81 58 96 bc 2e e6 a3 be b5 0b 6a be 18 8b 2a be
       -0.018352749 -0.3201155 -0.22856028 -0.16654623
0000e0 0e 8e 11 be be 74 0c be 52 d5 fd bd 74 93 6f 3d
       -0.14214346 -0.13716409 -0.12394203 0.05849023
0000f0 de 1b 13 bd 8a 76 a6 be 24 7e 26 3e 40 87 c1 be
       -0.035915248 -0.32512313 0.16259056 -0.377985
000100 01 36 e9 3c 97 e5 31 be 07 79 9d be fd 8f 8e be
       0.028468134 -0.17372738 -0.307564 -0.2784423
000110 09 b8 91 be e7 ff ae be d2 f7 66 be b1 9c 06 be
       -0.2846072 -0.34179613 -0.22555473 -0.1314571
000120 11 db 7b 3d 1f 63 51 3d 28 16 c1 bd 21 39 19 3e
       0.061488215 0.05111992 -0.09428054 0.14963199
000130 2c 7d 85 bd 75 50 d3 bd 9c d3 8a bc f4 cb 19 3e
       -0.06518015 -0.1031808 -0.016946606 0.15019208
000140 eb 8f f6 bb 67 77 ca 3c b1 ce 9a be 7e f9 84 be
       -0.0075244806 0.024715139 -0.30235818 -0.25971597
000150 95 b2 f7 bd ae a3 ef be 68 84 c0 bd fa 71 97 be
       -0.12094609 -0.46804565 -0.094002545 -0.29579145
000160 8d 69 a8 bd 12 60 14 3d c8 8d a5 be d3 52 f8 bd
       -0.08223257 0.036224432 -0.32334733 -0.121251725
000170 48 3a 4e be 35 a9 36 be bd 75 02 be 09 46 ae bd
       -0.2013942 -0.17837985 -0.12740226 -0.08509452
000180 cd 71 25 bc 01 bf 8e bc 98 1f 80 be ba 20 e0 bd
       -0.010097933 -0.017425062 -0.25024104 -0.10943742
000190 04 0d e7 bd 0d 98 29 bb 96 a5 54 be 6f c8 c3 bc
       -0.112817794 -0.0025877983 -0.20766291 -0.023899285
0001a0 48 3e a5 bd 9d 65 dc 3c a0 cb 3e be b2 0a db be
       -0.0806852 0.026903922 -0.18632364 -0.42781597
0001b0 49 d6 2c be 3b 8c ff bd ae ab 83 be 2b d0 16 be
       -0.16878618 -0.12477919 -0.2571692 -0.14727847
0001c0 ac 0a 6f be 74 7d f4 bb d3 de a0 be 59 75 fa bd
       -0.23343915 -0.0074612442 -0.3142 -0.122294135
0001d0 4d 31 32 3e 53 fc 9d bc 78 81 1f be d4 bc 01 be
       0.1740162 -0.019285357 -0.15576732 -0.12669688
0001e0 51 61 d1 bd 64 76 9c bd cb 64 38 be 76 db bc bd
       -0.1022364 -0.07639769 -0.180072 -0.09221546
0001f0 2b 74 01 be 8e 35 82 be 08 49 29 bd 36 ca e0 bd
       -0.12641971 -0.25431484 -0.041329414 -0.10976069

_model_sequential.fc1.weight f4 [64, 128]
000000 ff 51 0c bd 4f a6 8f bc ba 53 0f bc 4d 0a 81 3c
       -0.034257885 -0.017535357 -0.008747989 0.015751982
000010 d3 71 63 bd 22 cf e9 bd 42 06 01 bd b1 fb 7d bc
       -0.055528473 -0.114164606 -0.03150011 -0.015501902
000020 7a 96 c3 bd 15 70 e9 bd 9a f6 0e 3d ff 83 c0 bb
       -0.095501855 -0.11398331 0.034903146 -0.00587511
000030 0e 25 02 3d b4 60 04 bd 38 d7 dd bd d0 9c f6 bd
       0.03177362 -0.032318786 -0.10832065 -0.12041628
000040 2e 2c bc 3c f7 f4 ee 3c 48 53 b4 bd 81 30 a9 3b
       0.022970285 0.029169543 -0.08804947 0.005163253
000050 19 7e 03 be b5 f0 9c bd 9d bd 9a 3c c1 72 e6 bd
       -0.12841071 -0.07663099 0.018889243 -0.11252356
000060 ff a4 60 3c 5c 18 de bd df cc e5 bc 3f 17 fa 3c
       0.013711213 -0.1084449 -0.028051792 0.030528663
000070 bb 6e 93 bb 49 e5 af bb 49 62 51 bd 3f 80 41 bd
       -0.004499284 -0.005367909 -0.051119123 -0.047241446
000080 8d 03 c1 bc 37 74 84 bc ce 64 dd bc f2 ce 00 be
       -0.023561263 -0.016168697 -0.027025606 -0.12578943
000090 88 ba a0 bd 21 a1 ea bc 43 36 3b 3b 37 12 fc 3b
       -0.07848078 -0.028641285 0.0028566278 0.007692601
0000a0 1b b5 5d 3b 10 54 bf bd ad 3b ae bb f0 51 b0 bc
       0.003382987 -0.093422055 -0.0053171725 -0.021523446
0000b0 24 96 31 3d 46 f4 91 bc a0 b6 08 bd 7e 5a f1 bb
       0.043356076 -0.017816674 -0.03337729 -0.007365524
0000c0 48 56 f6 bd 54 47 00 bd aa ad fd 3c 06 8a 06 bd
       -0.120281756 -0.031318024 0.030966599 -0.032846473
0000d0 e2 fe 23 bd 2d 9c c2 bd 4a f3 17 bd 50 94 86 bc
       -0.040037997 -0.095024444 -0.037097253 -0.016428143
0000e0 04 a0 1c bd 11 d7 14 bd 0b 4b 2e bd c3 fa ab 3a
       -0.03823854 -0.036337916 -0.042552035 0.0013120997
0000f0 db e4 e2 bd de 17 41 3d e0 c4 aa 3c 62 aa 06 be
       -0.11078807 0.047141902 0.02084583 -0.13150933
000100 58 55 3a 3d 4a 70 e5 3c 37 f8 ae bd ba 58 2d bd
       0.045491546 0.028007645 -0.08543437 -0.042320944
000110 d0 ed 8e 3c 4f 4c 64 bd ff 4a 7c bc 52 b2 c0 3c
       0.017447382 -0.055736836 -0.01539874 0.02352253
000120 d0 27 bb bd 8e c1 89 3a 82 b5 04 be 4a d0 e7 3a
       -0.09138453 0.0010509954 -0.12959865 0.0017685976
000130 b1 5c ba bd 37 66 36 3c 55 2c c8 3a e3 17 5e bd
       -0.09099711 0.011132768 0.0015272001 -0.054222
000140 01 45 83 bd 52 92 03 bd d5 8b 8d bd 37 0d a8 39
       -0.06409646 -0.032121964 -0.069114365 0.00032053303
000150 9a d6 d9 bc 59 47 9e bd a3 cb 32 bd 3d 08 c6 bd
       -0.026591588 -0.07728452 -0.043651234 -0.0966954
000160 b4 89 6e bd 94 0e ad bb 4f f2 df bb 39 9c 16 bd
       -0.058236793 -0.005281279 -0.0068343054 -0.03677008
000170 eb 3d 9b bd f0 b1 94 bd 2f a4 2d bc 72 3a 3b 3d
       -0.07580169 -0.072605014 -0.010598226 0.045710035
000180 e6 af 97 3c 59 44 b8 bd 0b fd ec bd 32 87 14 3d
       0.018516492 -0.08997411 -0.115717016 0.036261745
000190 4c 3d f0 bd 7b 89 c8 3c f5 f3 ab 3c 13 91 03 be
       -0.117304415 0.024479618 0.020990351 -0.1284831
0001a0 06 33 20 bc 9b e2 80 bd a9 60 de bc b2 2b ac 3c
       -0.00977779 -0.062932216 -0.0271457 0.02101693
0001b0 ab c1 1b 3d 55 da 80 3c cd 48 02 be f3 ea 6d bd
       0.038026493 0.015729109 -0.12723084 -0.058085393
0001c0 8e 8c e4 bd 39 5e 24 3d 0f e4 a4 bd 32 54 a0 bd
       -0.11159621 0.04012892 -0.08051311 -0.07828559
0001d0 41 b6 e8 bd a2 ac 1c bd b3 ad 8a bd fe 5a d1 3c
       -0.11362887 -0.038250573 -0.06771412 0.025556084
0001e0 b9 55 95 bb 57 09 e4 3b cc b6 a6 bd 69 42 cb 3c
       -0.004557338 0.006959121 -0.081403345 0.02481194
0001f0 38 b6 72 bd 7c 92 8b bd 24 88 a1 3c bb 7f 93 bd
       -0.05925581 -0.06815049 0.019718237 -0.07202097
000200 4e 9d 3c 3e 3b 34 cb 3c 8e db 3b be 3d b5 7f bd
       0.18419382 0.024805179 -0.18345472 -0.0624287
000210 9d d9 01 3d dd d0 26 be a1 5f 1f be b8 b2 ee 3d
       0.031701673 -0.16290613 -0.15563823 0.11655182
000220 1f be 3d 3e 0a dc 0e 3e 1a 54 ca 3d 35 fb ed 3e
       0.18529557 0.13951126 0.09879322 0.46480718
000230 0e 61 03 bd 94 a3 ef 3d 50 41 5e bd e5 67 8f bd
       -0.03207498 0.11701122 -0.054261506 -0.07002238
000240 38 42 37 3e e6 50 97 bd b6 51 06 3f 32 e8 c7 3d
       0.17896354 -0.07388477 0.5246843 0.097610846
000250 61 5b 1e bd e2 da c8 bd 57 7b ca 3b 0b f4 31 3f
       -0.038661364 -0.098073736 0.006179254 0.69513005
000260 20 ff 65 3d bf 08 1c bd af b9 d9 bd 44 8f 34 3b
       0.05615151 -0.03809428 -0.106311195 0.0027551213
000270 27 d2 88 bc 37 da f4 bc 49 31 82 bb e3 d0 b7 bc
       -0.016701771 -0.02988921 -0.0039731604 -0.022438472
000280 7e 11 f9 bd 1b af c0 bd a4 21 1d bf c9 ac 84 be
       -0.121615395 -0.09408399 -0.61379457 -0.25913075
000290 24 13 5d 3d c0 a8 a2 bd 7c 22 4a be 55 1f aa 3d
       0.053973332 -0.07942343 -0.19739717 0.08306757
0002a0 b2 7b 54 be 03 ee 13 be 28 e2 c9 bc 08 f8 02 3d
       -0.20750311 -0.14446263 -0.024643973 0.031974822
0002b0 6b d9 22 bd 0a ef f2 bd 0b 2a 05 be 50 6b f2 bd
       -0.039758127 -0.11861999 -0.1300432 -0.118368745
0002c0 2f 40 58 be 14 26 6c bd ea 71 49 ba b6 ec 74 be
       -0.21118234 -0.0576535 -0.0007684516 -0.23918423
0002d0 a0 46 b3 3b 8c 7f fc 3b ab 1a 80 bb 88 16 b6 3b
       0.0054710656 0.0077056345 -0.003909429 0.005556885
0002e0 92 19 06 be c1 88 93 3d 23 fa bf bc 6f b6 4f 3d
       -0.13095692 0.07203818 -0.023434704 0.05071109
0002f0 5b 1b a7 3c bb c1 34 3d 7a f8 87 be c6 c1 9d be
       0.020398786 0.04413007 -0.2655676 -0.308119
000300 18 ee 63 bd a6 63 dc bb 80 7f 58 be 1a 3e b7 bd
       -0.055646986 -0.006725746 -0.21142387 -0.08947392
000310 78 ce 07 bd ab 45 7a be b4 2d 81 3c ff 45 68 3e
       -0.03315589 -0.24440639 0.015768863 0.22682951
000320 51 2b 95 be 50 56 f8 bc e2 30 55 3d b1 7a 8c 3e
       -0.2913461 -0.030314595 0.05204857 0.27437356
000330 65 ee 28 3e 67 fe a5 bc 60 97 69 be 0f 35 7e be
       0.1649719 -0.02026291 -0.22811651 -0.24824928
000340 d8 56 8c bd 63 c1 30 be f9 6e 96 3c 42 a5 44 3d
       -0.06852502 -0.17261271 0.018363463 0.048009165
000350 c5 89 d4 3c c3 28 7f 3c 78 0f a8 3c 68 9c 0f 3e
       0.0259446 0.015573683 0.020515189 0.14024508
000360 83 f7 cf bd 12 7f 1e be 10 64 0d 3e 89 19 0e 3d
       -0.10154631 -0.15478161 0.13807702 0.03469232
000370 2f 71 e2 3d c3 17 7b bc f1 49 5c bd 22 52 ec bc
       0.11056744 -0.015325489 -0.053781454 -0.028847758
000380 25 92 11 3e 7c d9 7c bc 20 de 40 be eb 70 93 bc
       0.14215906 -0.015432712 -0.18834734 -0.01799818
000390 2e e9 67 bd 39 54 d9 3c 18 40 57 bd 22 86 39 be
       -0.05661886 0.026529418 -0.05255136 -0.18117574
0003a0 16 de d4 3b 01 35 0c be 13 9b 98 bd a8 66 96 3d
       0.0064962013 -0.13692094 -0.07451453 0.07343799
0003b0 af b3 99 be ab a0 7b bd f8 52 e2 bd 61 07 5a 3d
       -0.300199 -0.06143252 -0.11050981 0.053229693
0003c0 85 d8 01 be a0 6e a8 bd c1 88 be bc d5 59 ae 3c
       -0.12680252 -0.08224225 -0.023258569 0.02128307
0003d0 ed 84 e7 bc 0a 1c e8 3d 92 02 e6 bd b1 5a d4 3d
       -0.028261626 0.11333473 -0.11230959 0.103688605
0003e0 1c 18 3b 3d d2 bc e0 3d e4 8d c9 bd eb c2 52 3e
       0.04567729 0.109735146 -0.098415166 0.20582168
0003f0 b1 92 6d 3d 9b 0c 4f bc cf 69 c5 3c 38 93 3c bd
       0.058001224 -0.012637283 0.024098305 -0.046038836

_model_sequential.fc1.bias f4 [64]
000000 6e cc 8b bd bb 89 1f be 1f 46 05 bd 45 e0 ad 3c
       -0.06826101 -0.15579884 -0.032537576 0.021225104
000010 ad fe bd bd 91 e4 cf bd dc 67 48 bd e6 3c 81 3b
       -0.09277091 -0.101510175 -0.048927173 0.0039440272
000020 90 9f 82 3c 12 b9 1f 39 0a 58 a3 bd fd e8 b2 3b
       0.015945226 0.00015232366 -0.079757765 0.0054599033
000030 e7 64 2b 3c 1e 4a 1c 3b 0c f6 7c bd bd 07 50 bb
       0.010461069 0.0023847888 -0.061758086 -0.0031742894
000040 c7 b8 24 3c f8 42 b5 bd 54 d1 1a 3d dd f8 d3 3b
       0.01005382 -0.08850664 0.037797287 0.006468876
000050 e7 68 06 bd 1a fe c7 bd cb c9 71 3c 46 1f aa bd
       -0.032814886 -0.09765263 0.014757584 -0.08306746
000060 d4 7c ed bc 92 77 8b 3d f5 74 d8 bd 18 07 b9 bd
       -0.028990187 0.068099156 -0.10569183 -0.09034556
000070 3f 5e 89 3c 82 0e 43 3d fb 48 6b bd 11 4e b7 bd
       0.016768573 0.047621258 -0.057442646 -0.08950437
000080 44 75 97 3d 35 e2 1d 3d 7a 44 9e bd 76 df d7 bc
       0.073954135 0.038545806 -0.077279046 -0.026351672
000090 9b f0 8c bc 49 1f d1 bd 6a b7 8e 3e 39 e6 95 3c
       -0.017204573 -0.10211045 0.2787431 0.018298255
0000a0 32 52 e1 3d 1e f3 e4 bd 7d f2 82 bd d5 8d 9b bd
       0.11002006 -0.111791834 -0.06393907 -0.07595412
0000b0 46 a5 59 3d d5 23 ab bd f9 11 50 be a0 4d 9f bd
       0.053136133 -0.08356444 -0.20319356 -0.07778478
0000c0 07 7e a6 bd f9 3b 76 bd d5 6e d9 bd 92 e1 8e bb
       -0.081295066 -0.060115788 -0.10616843 -0.004360386
0000d0 a5 df 29 bd 88 65 b2 3c 0c 4d 23 3d 8b 50 be 3b
       -0.04147305 0.02177693 0.0398684 0.0058079413
0000e0 d0 a4 72 bd 46 67 cf bc 57 65 aa bd f1 8e 60 3e
       -0.05923921 -0.0253178 -0.0832011 0.21929528
0000f0 76 0e 47 bb 45 f5 b3 bd 99 56 10 be de ae 17 bd
       -0.003037361 -0.08787016 -0.14095534 -0.037032
